model/MazeEnvSample5x5-ngu-target_net.pth (torch, 21075 bytes, 9 tensors)

weight_ih_l0 f4 [64, 2]
0	0x3e43b8cc	0.19113463
1	0x3e547b66	0.20750198
2	0xbd6fe520	-0.05856812
3	0x3e6b2a1c	0.22965282
4	0xbd605cb0	-0.054775894
5	0x3d4ea238	0.050447673
6	0xbdf94510	-0.12171376
7	0x3e165828	0.14682066
8	0x3e61accc	0.22038573
9	0xbe3bcf0e	-0.18340704
10	0x3e5e83a4	0.21729904
11	0x3d3fa6b0	0.046789825
12	0x3e3d2294	0.18470222
13	0x3d0aae50	0.033857644
14	0x3df6e15c	0.12054703
15	0xbd109460	-0.03529775
16	0x3e4558c6	0.19272146
17	0x3d175b38	0.036952227
18	0xbdef05a4	-0.11670998
19	0x3d828208	0.06372458
20	0xbdebe5ac	-0.11518416
21	0xbcf02cc0	-0.029318213
22	0xbdcff3fc	-0.10153958
23	0x3e29d2ae	0.16584274
24	0xbe4a142a	-0.19734254
25	0xbdec098c	-0.115252584
26	0xbd90936c	-0.070593685
27	0xbe19ecfe	-0.15031812
28	0x3cc14bf0	0.02359578
29	0xbe7cd88a	-0.24691978
30	0x3e673228	0.22577727
31	0xbe5976c0	-0.21236706
32	0x3e45a396	0.19300684
33	0x3d2a69c8	0.041604787
34	0xbda63fac	-0.08117613
35	0x3e1e31f8	0.15448749
36	0x3d1f9758	0.038962692
37	0x3e4ed6b0	0.20199084
38	0x3cdfe300	0.027329922
39	0xbda17898	-0.078843296
40	0x3d8990e8	0.06717092
41	0xbd8ad808	-0.06779486
42	0x3dd77aa4	0.10521439
43	0x3e648ffe	0.22320554
44	0x3e13fbb6	0.14451489
45	0xbddfd514	-0.10929313
46	0x3e13c79e	0.14431617
47	0x3d373870	0.044731557
48	0x3e02017a	0.12695876
49	0xbe1c0886	-0.15237626
50	0xbe7d6aa4	-0.24747711
51	0xbdc5d10c	-0.09659013
52	0xbe445b9c	-0.19175571
53	0x3e520ed6	0.20513472
54	0x3d9378d8	0.072007835
55	0x3dd413cc	0.103553385
56	0x3da1ecfc	0.07906529
57	0xbb8e8200	-0.0043489933
58	0x3e485904	0.19565207
59	0xbe35e438	-0.1776284
60	0x3c80f320	0.015740931
61	0xbe2ebaf4	-0.17063504
62	0x3d9de050	0.077088
63	0xbdb052e0	-0.08609557
64	0x3d9ce298	0.07660407
65	0xbd555778	-0.05208537
66	0x3e545306	0.20734796
67	0xbe17bb50	-0.14817548
68	0xbe18ad8a	-0.1490995
69	0xbe18afe6	-0.1491085
70	0x3e6641e2	0.2248607
71	0x3daa9fe4	0.08331278
72	0x3e765610	0.24056268
73	0xbe53454e	-0.20631906
74	0xbe7deb98	-0.24796903
75	0xbe4848fe	-0.19559094
76	0xbe2c355a	-0.16817227
77	0x3dcf616c	0.101260036
78	0x3db755b8	0.089518964
79	0x3e54b776	0.2077311
80	0xbe043474	-0.12910634
81	0xbe2e84aa	-0.17042795
82	0x3e07d3f8	0.13264453
83	0xbdcef3e4	-0.10105112
84	0x3e1b5f5c	0.15173095
85	0xbd72fef0	-0.05932516
86	0x3e12719a	0.14301148
87	0xbe46e760	-0.194242
88	0xbe0130ba	-0.12616244
89	0x3d9c18c4	0.07621911
90	0x3d587b38	0.052851886
91	0xbd8289f4	-0.06373969
92	0x3e189802	0.14901736
93	0x3e2e07fa	0.1699523
94	0xbe39a4f6	-0.18129334
95	0xbe08ab96	-0.13346705
96	0x3e6a68d2	0.22891548
97	0xbdacc3f4	-0.084358126
98	0xbdb5832c	-0.0886291
99	0xbe77b448	-0.24189866
100	0xbe129a84	-0.14316756
101	0x3d7fcc88	0.062450916
102	0xbd072938	-0.032998294
103	0xbe39d3aa	-0.1814715
104	0x3bc02840	0.005864173
105	0xbe2ede6e	-0.17077038
106	0xbe593086	-0.21209916
107	0xbe0cf83a	-0.13766566
108	0xbe600de6	-0.21880302
109	0xbe230144	-0.15918452
110	0x3e7fe65e	0.24990222
111	0x3d416870	0.04721874
112	0x3d9dc71c	0.07703993
113	0xbe6ec466	-0.23317108
114	0xbe282254	-0.16419345
115	0xbdaa6c14	-0.083213955
116	0x3d201fc0	0.03909278
117	0xbe614286	-0.21998033
118	0xbddc9b64	-0.10771826
119	0xbe194258	-0.14966714
120	0x3a359e00	0.0006928146
121	0xbdbe8450	-0.0930258
122	0xbc8deaf0	-0.017323941
123	0xbe2d7924	-0.16940743
124	0xbe2fb798	-0.17159879
125	0xbe1559d2	-0.14585045
126	0xbdaf419c	-0.08557436
127	0xbe4a0e50	-0.19732022

weight_hh_l0 f4 [64, 16]
0	0x3e56a5f6	0.20961747
1	0xbd4b3a28	-0.04961601
2	0x3e5c42f6	0.21509919
3	0x3d9f87b0	0.07789552
4	0xbe58c7b0	-0.21169925
5	0x3e312938	0.1730088
6	0xbd8cdfc8	-0.068786204
7	0xbdc44350	-0.09583151
8	0xbe547f80	-0.20751762
9	0xbe7e8150	-0.24854016
10	0x3d927d18	0.07152766
11	0xbd5fafc0	-0.054610968
12	0x3dc7555c	0.09733078
13	0xbe521700	-0.20516586
14	0x3e3e0fd6	0.18560728
15	0xbe3beaf2	-0.18351343
16	0xbd30d148	-0.043168336
17	0x3d55e1f0	0.052217424
18	0x3e042914	0.12906295
19	0x3e4eabe4	0.20182759
20	0x3e6934a0	0.22773981
21	0xbe4afcf2	-0.19823053
22	0x3d80da88	0.062916815
23	0xbddc3978	-0.10753149
24	0xbce06e00	-0.027396202
25	0xbe3f9d0c	-0.18712252
26	0x3e692e08	0.22771466
27	0xbe3be42e	-0.18348762
28	0x3e08d1cc	0.13361281
29	0x3db3efe4	0.0878599
30	0x3da660a0	0.081238985
31	0xbe0a67ca	-0.13516155
32	0x3e68b10c	0.22723788
33	0x3d610640	0.0549376
34	0x3d03ba38	0.032160014
35	0xbe6199ea	-0.2203137
36	0x3dd6ee84	0.10494712
37	0xbd199f00	-0.03750515
38	0xbdea8f44	-0.11453107
39	0x3e5be3ec	0.21473664
40	0x3d644cb0	0.055737197
41	0xbe0da386	-0.1383191
42	0xbe019252	-0.12653473
43	0xbc439b80	-0.01193893
44	0x3e0ef0c4	0.13959032
45	0xbd82d554	-0.06388345
46	0xbe121132	-0.14264372
47	0xbdaf54ac	-0.08561072
48	0xbe3f404c	-0.18676871
49	0x3db69888	0.08915812
50	0x3e462780	0.19351006
51	0xbe71023c	-0.23536009
52	0x3d6dd320	0.058062673
53	0x3e043f5c	0.12914795
54	0x3d39ae68	0.045332342
55	0xbdb655f8	-0.08903116
56	0x3e059e00	0.13048553
57	0x3e068808	0.1313783
58	0x3dbf7364	0.09348181
59	0xbd33f050	-0.04393035
60	0xbd879408	-0.066200316
61	0x3cdb18d0	0.02674523
62	0xbd34e4d0	-0.044163525
63	0xbd989398	-0.07450026
64	0x3e23a310	0.15980172
65	0x3e5c019c	0.21484989
66	0xbccabf20	-0.024749339
67	0xbd654538	-0.055974215
68	0x3b6f1480	0.0036480725
69	0xbc7490a0	-0.014927059
70	0x3d762e60	0.06010282
71	0x3d8f7ac8	0.070058405
72	0xbe688384	-0.22706419
73	0xbdbcf284	-0.09225944
74	0x3e5795cc	0.21053237
75	0x3dc773c0	0.097388744
76	0xbc4bb9a0	-0.012434393
77	0xbe1a5808	-0.15072644
78	0xbe1c9f42	-0.15295127
79	0xbe6550fa	-0.22394171
80	0xbda6e48c	-0.081490606
81	0x3dace790	0.084426045
82	0x3e233b2c	0.15940541
83	0x3dec6398	0.115424335
84	0xbe624a28	-0.22098601
85	0xbe19f2e4	-0.15034062
86	0xbd219ab0	-0.039454162
87	0x3e77a438	0.24183738
88	0x3d142118	0.036164373
89	0xbd8497d0	-0.064742684
90	0x3dd3d27c	0.10342881
91	0xbdc302e8	-0.09522039
92	0xbe25b28c	-0.16181391
93	0x3e3ad9e4	0.18247181
94	0xbde8ceac	-0.113675445
95	0xbd4d4728	-0.050116688
96	0xbe7eab7e	-0.24870107
97	0x3e2b5552	0.16731766
98	0x3e41f458	0.18940866
99	0x3dba98f4	0.09111205
100	0xbe328090	-0.17431855
101	0xbe7ca818	-0.24673498
102	0xbe4feaf6	-0.20304474
103	0x3e3ee636	0.18642506
104	0x3df5d06c	0.12002644
105	0x3e576cd6	0.21037611
106	0x3e061c56	0.13096747
107	0x3d81954c	0.06327304
108	0xbb207180	-0.0024481714
109	0xbe42b086	-0.19012651
110	0xbe5b556c	-0.21419305
111	0xbe6f7302	-0.23383716
112	0x3dd197e4	0.10234049
113	0xbdfb6028	-0.122742
114	0xbd4e1528	-0.050313145
115	0xbe135450	-0.14387631
116	0xbd3a98d0	-0.04555589
117	0xbe342e86	-0.17595872
118	0xbe274640	-0.16335392
119	0x3da9d600	0.082927704
120	0xbd982a20	-0.0742991
121	0x3e1e0a34	0.1543358
122	0xbda4410c	-0.08020219
123	0xbe3bcb10	-0.18339181
124	0xbd34ac68	-0.044109732
125	0xbdf830d0	-0.12118685
126	0xbd9ca460	-0.076485395
127	0xbe73b5fc	-0.2379989
128	0x3e0f3acc	0.13987273
129	0xbe323a76	-0.17405114
130	0x3e00ab8e	0.12565443
131	0x3de85668	0.11344606
132	0x3e36e510	0.17860818
133	0xbe445d86	-0.19176301
134	0x3e381d48	0.1797992
135	0xbdf20c80	-0.118187904
136	0x3dbdfcc8	0.0927673
137	0x3e7069d2	0.23477867
138	0xbd106aa8	-0.035257965
139	0xbafd6900	-0.0019333661
140	0xbd6bc190	-0.057557642
141	0xbe55c18c	-0.20874614
142	0x3df5b5d4	0.119975716
143	0xbe7e22c2	-0.24817947
144	0x3e1eecbe	0.15519997
145	0x3e3f8bae	0.18705627
146	0x3e7219d0	0.23642659
147	0xbd718a68	-0.058969885
148	0xbe525720	-0.20541048
149	0x3d6639e8	0.056207567
150	0x3e0d6be0	0.13810682
151	0xbe7ecc8e	-0.24882719
152	0xbd686e68	-0.056745917
153	0xbe1975ea	-0.14986387
154	0xbcb32030	-0.021865934
155	0xbdfc0368	-0.12305337
156	0xbdd149fc	-0.102191895
157	0xbda289f8	-0.07936472
158	0xbe734720	-0.23757601
159	0x3e520cc8	0.20512688
160	0x3e569ce0	0.2095828
161	0xbd20a248	-0.039217263
162	0xbce93b00	-0.028470516
163	0xbdd0f518	-0.10202998
164	0xbe672f20	-0.2257657
165	0xbe791ffe	-0.2432861
166	0x3dbe4a04	0.09291461
167	0xbe0c8e4a	-0.13726154
168	0xbe249396	-0.16071925
169	0xbc9fcaa0	-0.019505799
170	0xbdaa8070	-0.08325279
171	0xbda5a484	-0.080880195
172	0x3c039c00	0.008032799
173	0xbd593400	-0.053028107
174	0xbdb049b8	-0.08607811
175	0xbdf5260c	-0.119701475
176	0xbe5056fe	-0.20345685
177	0x3e56a868	0.2096268
178	0xbdcce554	-0.10004678
179	0x3d87ab64	0.06624487
180	0xbdb1a584	-0.08674148
181	0x3ca66c50	0.02031532
182	0x3e6eab3e	0.23307511
183	0x3debe3d8	0.11518067
184	0xbe5dd97a	-0.21664992
185	0x3dcb36d8	0.0992257
186	0x3e730194	0.23731071
187	0x3d86b2dc	0.065770835
188	0x3e2ba0f4	0.16760617
189	0x3e7c6320	0.24647188
190	0xbd1ce810	-0.03830725
191	0x3d548928	0.051888615
192	0xbe31edd2	-0.17375877
193	0xbd5305e0	-0.051519275
194	0x3e3d96e6	0.18514594
195	0x3e033cc2	0.12816146
196	0xbe21fe76	-0.15819725
197	0xbe4d4856	-0.20047125
198	0xbe2ef0ec	-0.17084092
199	0xbe7ca404	-0.24671942
200	0xbe458a22	-0.19290975
201	0xbd7d3b88	-0.06182435
202	0x3e2cc4c0	0.16871929
203	0x3d2b6640	0.04184556
204	0xbe42b70a	-0.19015136
205	0xbe4d5e8c	-0.20055598
206	0x3dfeb514	0.12436882
207	0xbe3e6c62	-0.18596032
208	0xbcfc2a40	-0.030781865
209	0x3df59c08	0.11992651
210	0xbdecf5b4	-0.11570302
211	0xbcdf5050	-0.027259976
212	0xbcb24460	-0.02176112
213	0xbd7242e8	-0.059145838
214	0xbe01ccdc	-0.12675804
215	0xbe64354e	-0.22285959
216	0xbe4ef07c	-0.20208925
217	0xbe091404	-0.13386542
218	0x3e774124	0.24145943
219	0xbdf74db4	-0.120753676
220	0xbe2be942	-0.167882
221	0x3d783630	0.060598552
222	0x3d8d1ccc	0.06890258
223	0x3e0c43d0	0.13697743
224	0x3e429740	0.1900301
225	0x3e0e8f4e	0.13921854
226	0xbe7dd302	-0.24787524
227	0x3cb5a260	0.022172153
228	0x3e1b12a2	0.15143827
229	0xbcbd4990	-0.023106366
230	0xbe16db00	-0.1473198
231	0x3e740e14	0.23833495
232	0xbdbf8094	-0.09350696
233	0xbe11c090	-0.14233613
234	0xbe66cc50	-0.22538877
235	0x3c36f620	0.011167079
236	0x3de2e258	0.11078328
237	0x3d62acf0	0.055340707
238	0x3d4a7ee8	0.049437433
239	0xbe4225ae	-0.18959686
240	0xbe6f133c	-0.23347181
241	0x3b904180	0.0044023395
242	0x3e696df6	0.22795853
243	0x3e13b11e	0.14423034
244	0xbe150d4e	-0.14555857
245	0xbd04ec88	-0.032452136
246	0xbe3cb810	-0.1842959
247	0xbdf70034	-0.120605856
248	0x3d3971d8	0.045274585
249	0x3e0b66e0	0.13613462
250	0x3e541002	0.20709231
251	0xbe6b0900	-0.22952652
252	0x3e2b2a5e	0.1671538
253	0xbe348e06	-0.17632303
254	0x3dbfba2c	0.09361681
255	0x3e58a388	0.21156132

bias_ih_l0 f4 [64]
0	0x3d9a6e0c	0.07540521
1	0x3d3e0448	0.0463908
2	0xbe164e92	-0.1467841
3	0x3d1a6c80	0.03770113
4	0x3e76aa92	0.24088505
5	0x3e2f9620	0.17147112
6	0xbe47640a	-0.19471756
7	0x3e69aea6	0.2282053
8	0x3c9ebd70	0.01937744
9	0x3df64110	0.120241284
10	0x3e46d442	0.19416907
11	0x3e5a3e0a	0.21312729
12	0xbe478f98	-0.1948837
13	0x3e602b82	0.21891597
14	0xbe2dde68	-0.16979373
15	0x3c9987d0	0.018741518
16	0xbe32e22c	-0.1746909
17	0xbd607eb0	-0.05480832
18	0xbc3a2220	-0.011360675
19	0xbcf50360	-0.029908836
20	0xbd21c470	-0.039493978
21	0x3ca186e0	0.019717634
22	0x3e7c85f0	0.24660468
23	0x3e14bd2c	0.14525288
24	0x3e0f396c	0.13986748
25	0x3dcced3c	0.10006186
26	0x3e4630bc	0.19354528
27	0xbc3d06c0	-0.011537254
28	0x3ca2d750	0.01987806
29	0x3d52bc78	0.05144927
30	0xbe5f43f2	-0.21803263
31	0xbe4e38fa	-0.20138922
32	0x3cfb1670	0.030650347
33	0xbdc851f4	-0.09781256
34	0xbb965240	-0.0045874417
35	0xbd6af740	-0.057364702
36	0x3d1f6610	0.038915694
37	0x3e268ebe	0.1626539
38	0xbda9ccf8	-0.08291048
39	0x3e4d0534	0.20021516
40	0x3e4a20b8	0.19739044
41	0xbe447ac2	-0.19187453
42	0xbe45b09e	-0.19305655
43	0xbe4f1f88	-0.20226872
44	0xbe0c4b0e	-0.13700506
45	0xbdc74f38	-0.09731907
46	0xbc9a26e0	-0.018817365
47	0xbd790760	-0.06079805
48	0xbe0157f8	-0.12631214
49	0xbda2a8bc	-0.0794234
50	0xbdb93694	-0.09043613
51	0x3e7b2552	0.24525955
52	0xbdbdc310	-0.09265721
53	0xbe374bd6	-0.17900023
54	0x3dd4d650	0.10392439
55	0xbc6c9760	-0.0144403875
56	0x3e43fc00	0.19139099
57	0x3e1ff508	0.15620816
58	0x3e6b31d0	0.2296822
59	0xbe3b7bea	-0.18308988
60	0x3e2492b2	0.16071585
61	0x3e56d85a	0.20980969
62	0xbdfcd77c	-0.12345788
63	0x3e6b4f60	0.22979498

bias_hh_l0 f4 [64]
0	0x3e3fe89a	0.18741074
1	0x3b336c80	0.0027377903
2	0x3df6dcb0	0.120538116
3	0xbdb30198	-0.08740538
4	0xbe5f4770	-0.21804595
5	0x3d816c64	0.06319502
6	0x3d98a3e0	0.07453132
7	0xbe274fa4	-0.16338974
8	0x3df851e0	0.121249914
9	0xbe5aae56	-0.21355566
10	0x3e5c51dc	0.21515602
11	0x3e77e86e	0.24209759
12	0x3d8b6574	0.0680646
13	0xbe209f2c	-0.15685719
14	0x3df92cf8	0.1216678
15	0x3d2e8178	0.04260394
16	0x3d8b38f0	0.06797969
17	0x3da84540	0.082163334
18	0x3e42e832	0.19033888
19	0xbddc1374	-0.10745898
20	0xbd665800	-0.056236267
21	0x3d8ba01c	0.06817648
22	0x3cdf2700	0.027240276
23	0x3e4e6ec4	0.20159441
24	0xbe067608	-0.13130963
25	0xbc1529a0	-0.009104162
26	0x3d3f5670	0.046713293
27	0xbd87fb48	-0.06639725
28	0x3e2e84fc	0.17042917
29	0x3ce00370	0.02734539
30	0xbe6c9a56	-0.2310575
31	0xbcdddf30	-0.027083963
32	0xbde8389c	-0.113389224
33	0x3cc701b0	0.024292797
34	0xbcee02a0	-0.029053986
35	0xbe7def66	-0.24798355
36	0xbd3a9948	-0.045556337
37	0xbcc427f0	-0.023944825
38	0xbd96fa50	-0.07371962
39	0x3e6b3532	0.22969511
40	0xbd5f6f98	-0.054549783
41	0x3e247574	0.1606043
42	0x3d7da9b8	0.061929435
43	0xbe58191c	-0.21103328
44	0x3d70a030	0.058746517
45	0x3e542804	0.2071839
46	0xbe277324	-0.16352516
47	0xbe2578d4	-0.16159374
48	0x3e7a95da	0.24471226
49	0x3e4db2d4	0.20087749
50	0xbe0ed224	-0.1394735
51	0x3e1a0bf6	0.15043625
52	0xbd0300a0	-0.031983018
53	0xbe7c65de	-0.24648234
54	0x3c99df90	0.01878336
55	0x3da56c94	0.0807735
56	0xbd999478	-0.07499021
57	0x3db21dc8	0.086970866
58	0xbe5ae7e4	-0.21377522
59	0x3e31697e	0.17325398
60	0x3e5a3fb0	0.21313357
61	0x3e0d2cec	0.13786668
62	0x3d2d8f20	0.042372823
63	0x3da8a06c	0.08233723

weight f4 [128, 16]
0	0xbe393a6e	-0.18088695
1	0xbd7fded0	-0.06246835
2	0xbcc38480	-0.023866892
3	0xbe0e75e0	-0.13912153
4	0xbe3d1634	-0.18465501
5	0x3e2c30aa	0.16815439
6	0x3e2dbbb2	0.16966131
7	0xbe687f06	-0.22704706
8	0x3da2ecac	0.07955298
9	0x3dd04860	0.101700544
10	0x3e733120	0.23749208
11	0x3e141c18	0.14463842
12	0x3e6b59a6	0.22983417
13	0xbda79fa0	-0.08184743
14	0x3e334c86	0.1750966
15	0x3e503b12	0.20335034
16	0xbe71bf7c	-0.23608202
17	0xbe4d7e30	-0.20067668
18	0x3d4f4360	0.050601363
19	0x3e0bc922	0.13650945
20	0xbdfe5e48	-0.124203265
21	0x3ce18e30	0.02753362
22	0xb9be4800	-0.00036293268
23	0x3d819754	0.06327692
24	0xbe098fbe	-0.1343374
25	0x3e1064dc	0.14100975
26	0x3e2a3e0e	0.16625234
27	0xbe31a0b2	-0.17346457
28	0x3b1eb800	0.002421856
29	0x3a35d600	0.00069364905
30	0x3da46948	0.08027893
31	0x3e6e7c52	0.23289612
32	0x3d9626a0	0.07331586
33	0xbd68ace0	-0.05680549
34	0x3e65ec0a	0.22453323
35	0xbdc2d534	-0.095133215
36	0xbd94ab9c	-0.072592944
37	0x3c8bd3f0	0.017068833
38	0xbe42f23e	-0.1903772
39	0x3cdedba0	0.027204335
40	0xbe2db092	-0.16961887
41	0x3cd293a0	0.025705159
42	0x3cc436c0	0.023951888
43	0x3d0dbe28	0.034605175
44	0xbe57e238	-0.2108239
45	0xbe732510	-0.23744607
46	0x3deb9480	0.115029335
47	0x3e5b8b68	0.21439898
48	0xbe632ad6	-0.2218431
49	0x3dbda450	0.09259856
50	0xbe3c7276	-0.18403038
51	0x3c806450	0.015672833
52	0x3e6e2bec	0.23258942
53	0x3e4234de	0.1896548
54	0xbe3b2bfa	-0.18278494
55	0x3e1e5aba	0.15464297
56	0x3e05b694	0.1305793
57	0xb9c90c00	-0.00038346648
58	0x3e77fe7a	0.24218169
59	0xbdcb5a8c	-0.0992938
60	0xbd6e4d10	-0.05817896
61	0xbe0162d2	-0.12635353
62	0x3d1359b0	0.035974205
63	0x3d879220	0.06619668
64	0x3ca32f60	0.019920051
65	0xbe1008fc	-0.14065927
66	0xbde67c38	-0.112541616
67	0x3dae2878	0.085038126
68	0xbe6077b2	-0.2192066
69	0xbd1f78e0	-0.038933635
70	0xbbb57740	-0.0055378973
71	0xbdcf71a4	-0.10129097
72	0x3dba5378	0.09097952
73	0x3c840050	0.01611343
74	0x3e33ba82	0.17551616
75	0xbcb5e2d0	-0.02220288
76	0xbe21924a	-0.15778461
77	0x3e34e094	0.17663795
78	0x3d0f0018	0.0349122
79	0xbd92a2c8	-0.07159954
80	0xbe28baf6	-0.1647757
81	0x3d7003a8	0.058597237
82	0xbe742920	-0.23843813
83	0x3d86d974	0.06584445
84	0x3dfd27dc	0.12361118
85	0xbe609036	-0.21930012
86	0xbe27989c	-0.1636681
87	0xbe380b86	-0.17973146
88	0x3e572b70	0.21012664
89	0x3e59a182	0.21253017
90	0x3c8034e0	0.015650213
91	0x3e705594	0.23470145
92	0xbdab29e4	-0.083575994
93	0xbe7887ce	-0.24270555
94	0x3db2d6c8	0.087323725
95	0x3db562b0	0.08856714
96	0x3e7afa56	0.24509558
97	0xb897c000	-7.236004e-05
98	0x3e44328a	0.19159904
99	0x3e1ceb32	0.15324095
100	0x3e3948ea	0.18094221
101	0xbe7e097a	-0.24808303
102	0x3e52ce24	0.20586449
103	0xbe5a3a5a	-0.21311322
104	0x3e6581c0	0.22412777
105	0xbc29bda0	-0.0103601515
106	0xbe62df20	-0.22155428
107	0x3d8e622c	0.069523185
108	0xbd506e90	-0.05088669
109	0xbe65f000	-0.22454834
110	0xbdb99e9c	-0.090634555
111	0x3cd328d0	0.025776297
112	0x3e47627e	0.19471166
113	0xbd9d676c	-0.07685742
114	0x3e180e48	0.14849198
115	0x3d003be8	0.03130713
116	0x3c0a1140	0.008426964
117	0x3d43eff0	0.047836244
118	0xbe28013a	-0.16406718
119	0xbe54c968	-0.20779955
120	0xbda0e058	-0.0785529
121	0xbe6e8dfc	-0.2329635
122	0xbdeec580	-0.11658764
123	0x3c3c70a0	0.011501461
124	0xbe289a9e	-0.16465232
125	0xbdd46024	-0.103699
126	0xbd37ffb8	-0.044921607
127	0xbcebefc0	-0.028800845
128	0xbe0d50d4	-0.13800365
129	0x3c44d120	0.01201275
130	0xbd0fbaa8	-0.03509012
131	0x3d926e04	0.0714989
132	0x3c390180	0.0112918615
133	0xbdffad64	-0.124842435
134	0xbdb045fc	-0.086070985
135	0xbb3cd680	-0.0028814375
136	0xbe1fbd80	-0.15599632
137	0x3ca053e0	0.019571245
138	0xbc9099c0	-0.017651439
139	0x3dc6a520	0.09699464
140	0x3d725880	0.05916643
141	0x3e3f9610	0.18709588
142	0xbc0706c0	-0.008241355
143	0xbe3d28e4	-0.1847263
144	0x3de4de5c	0.11175224
145	0xbe2d03b6	-0.16895947
146	0xbd0cc050	-0.03436309
147	0xbda5c978	-0.08095068
148	0xbdc2468c	-0.09486112
149	0xbdbd6e88	-0.09249598
150	0x3e6b3e60	0.22973013
151	0x3e128c88	0.14311421
152	0x3d8de4f4	0.06928435
153	0x3e705f76	0.23473915
154	0xbe67fe2a	-0.2265555
155	0x3d253d88	0.040341884
156	0x3e23e29a	0.1600441
157	0x3e2a0ee8	0.16607249
158	0xbe4bbd12	-0.19896343
159	0x3db63728	0.08897239
160	0xbe11d6f0	-0.14242148
161	0xbc200be0	-0.009768456
162	0xbd55ada8	-0.052167565
163	0xbe55c03c	-0.20874113
164	0xbe7433bc	-0.2384786
165	0xbe286c00	-0.16447449
166	0x3de8549c	0.11344263
167	0x3dea34fc	0.11435887
168	0xbe5ea8d6	-0.21744093
169	0xbdc04714	-0.09388557
170	0x3b85cfc0	0.0040836036
171	0xbe5d5548	-0.21614563
172	0x3e103e8e	0.14086363
173	0x3e67de14	0.2264331
174	0x3d351b40	0.04421544
175	0xbe3e3638	-0.1857537
176	0x3d6ec868	0.05829659
177	0x3db9dcec	0.09075341
178	0x3e4ab63a	0.19796076
179	0xbe0835bc	-0.13301748
180	0xbe655a58	-0.22397745
181	0x3de0f290	0.10983765
182	0x3c7f0080	0.015564084
183	0xbda6d2b8	-0.0814566
184	0xbdd68a18	-0.10475558
185	0xbe03ff66	-0.12890396
186	0x3e4f3b32	0.20237425
187	0xbd30ae18	-0.04313478
188	0x3e38a106	0.18030176
189	0x3e6484b0	0.22316241
190	0x3d01b760	0.03166902
191	0x3d5a2148	0.053254396
192	0xbc8b7a80	-0.017026186
193	0x3e2fd322	0.17170385
194	0xbe66adb2	-0.22527197
195	0x3dcb9d1c	0.099420756
196	0xbd26d6d0	-0.040732205
197	0x3de9c99c	0.11415407
198	0xba91f300	-0.0011135042
199	0xbdbd9384	-0.09256652
200	0xbcdd14e0	-0.026987493
201	0x3e0a3cf8	0.1349982
202	0xbe31ccb6	-0.17363247
203	0xbe21d140	-0.15802479
204	0xbd655f50	-0.0559991
205	0xbdb9b708	-0.090681136
206	0x3dc92238	0.0982098
207	0x3e2c47c0	0.16824245
208	0xbcdb5680	-0.026774645
209	0x3e721120	0.23639345
210	0xbdd5ec80	-0.104454994
211	0xbe0fa824	-0.14028984
212	0xbde53828	-0.111923516
213	0xbe30607e	-0.17224309
214	0xbe337066	-0.17523345
215	0xbe641998	-0.22275388
216	0xbe62e332	-0.2215698
217	0x3d85a19c	0.06524965
218	0x3e1c1f64	0.1524635
219	0x3e70584c	0.23471183
220	0x3e5a0f64	0.21294934
221	0xbc6be760	-0.014398426
222	0x3d46b428	0.048511654
223	0xbe192b7c	-0.14957994
224	0x3dc5e618	0.096630275
225	0xbe75769c	-0.23971027
226	0x3df17f1c	0.11791822
227	0x3d3bd148	0.045853883
228	0x3d9d56fc	0.076826066
229	0x3dbb77cc	0.09153709
230	0xbdeb0fc8	-0.114776194
231	0x3e5bacdc	0.2145266
232	0x3df45a70	0.11931312
233	0x3e282a40	0.16422367
234	0x3d073f98	0.033019632
235	0x3e20c3ba	0.15699664
236	0x3e2c49cc	0.16825026
237	0x3de80e68	0.11330873
238	0x3e430346	0.19044217
239	0xbd39bb20	-0.045344472
240	0x3e28544a	0.16438404
241	0x3d6bedc0	0.057599783
242	0x3e1a08c0	0.150424
243	0x3e7957f8	0.24349964
244	0x3d67df20	0.056609273
245	0xbdbe0998	-0.092791736
246	0xbccbc4a0	-0.024874032
247	0x3d902480	0.07038212
248	0x3d2ca7e8	0.042152315
249	0xbd8bdcf4	-0.06829253
250	0x3e4894aa	0.19587961
251	0x3e19ce82	0.15020183
252	0xbe1f03ee	-0.15528843
253	0xbca6dfc0	-0.020370364
254	0xbcc49860	-0.02399844
255	0xbe20716e	-0.1566827

bias f4 [128]
0	0x3e7c22aa	0.24622598
1	0xbe69d58a	-0.22835365
2	0x3e6df8c8	0.23239434
3	0xbe493e1a	-0.19652596
4	0xbd7870b8	-0.060654372
5	0xbdd1bfd4	-0.102416664
6	0xbe090624	-0.13381249
7	0x3db608c0	0.08888388
8	0x3e146052	0.14489868
9	0xbe282ab6	-0.16422543
10	0xbdee76bc	-0.116437405
11	0x3e02ab58	0.12760675
12	0xbcf78de0	-0.030219018
13	0x3d7964e8	0.060887247
14	0x3e05d9ae	0.1307132
15	0xbdbd405c	-0.09240791
16	0xbe0e12c6	-0.13874349
17	0x3dbc7734	0.09202424
18	0xbdbb7dec	-0.09154877
19	0xbe2a677c	-0.16641039
20	0xbe012162	-0.12610391
21	0xbdee0fe8	-0.116241276
22	0x3e7ee766	0.24892959
23	0x3d44f068	0.04808083
24	0x3ddc8120	0.10766816
25	0x3d098c70	0.033581197
26	0xbe2c94d8	-0.16853654
27	0x3e38bd44	0.18040949
28	0xbd1f2df8	-0.0388622
29	0xbd849298	-0.06473273
30	0x3e50a102	0.2037392
31	0xbe0268bc	-0.12735265
32	0x3d4fee88	0.05076459
33	0xbe59c666	-0.21267089
34	0x3e032e26	0.12810573
35	0x3dcb5f44	0.0993028
36	0xbe528202	-0.20557407
37	0x3e0ee212	0.13953426
38	0x3ce16180	0.027512312
39	0xbe04307e	-0.12909123
40	0x3e5a4630	0.21315837
41	0x3ddbe3f0	0.10736835
42	0x3db3ecd4	0.08785406
43	0xbdbe2b80	-0.09285641
44	0xbe0c5eba	-0.1370801
45	0xbe09bf44	-0.13451868
46	0x3dc05c34	0.09392586
47	0x3d89ed00	0.06734657
48	0xbe193726	-0.14962444
49	0x3e68f29e	0.22748801
50	0x3e15266a	0.14565435
51	0xbdc37c4c	-0.09545192
52	0x3e0472f8	0.12934482
53	0xbdd90934	-0.105974585
54	0x3da0ae08	0.07845694
55	0x3e5513c4	0.20808321
56	0xbe6270b0	-0.221133
57	0xbdfe91ec	-0.12430176
58	0xbc677d00	-0.014128923
59	0x3d18b460	0.037281394
60	0xbe528718	-0.20559347
61	0xbe286c3e	-0.16447541
62	0xbcc42790	-0.023944646
63	0xbd13a360	-0.03604448
64	0x3d5cdf08	0.053923637
65	0x3d021e18	0.03176698
66	0x3d5210c0	0.051285505
67	0x3c87c4e0	0.01657337
68	0x3ceb6430	0.028734297
69	0xbc6c6a80	-0.014429688
70	0x3db7deec	0.08978066
71	0x3e2eb816	0.1706241
72	0xbdff8384	-0.124762565
73	0xbe049f02	-0.12951282
74	0x3de0b97c	0.10972878
75	0xbe391f4a	-0.18078342
76	0x3e265d18	0.1624645
77	0x3dec8878	0.11549467
78	0x3d141a68	0.036157995
79	0xbdde47b4	-0.1085352
80	0x3bf5a440	0.0074963868
81	0xbe4a6848	-0.19766343
82	0xbe66518a	-0.22492042
83	0x3e71137c	0.23542589
84	0xbe659cf6	-0.22423157
85	0xbe546ac2	-0.2074385
86	0xbdc6e290	-0.09711182
87	0x3c660540	0.014039338
88	0x3d6a87e8	0.057258517
89	0xbdfc4dfc	-0.12319562
90	0xbcc6bc50	-0.024259716
91	0xbd64ab50	-0.05582744
92	0x3e5633a4	0.20918137
93	0x3e5e323c	0.2169885
94	0x3dd26fc8	0.10275227
95	0xbac9fc00	-0.0015410185
96	0x3e3ffba4	0.18748337
97	0xbe4eb0be	-0.2018461
98	0x3dd5ec24	0.10445431
99	0xbe14cd50	-0.14531446
100	0x3e47a502	0.19496539
101	0xbe624d06	-0.22099695
102	0x3dbe3c28	0.09288818
103	0xbe527a9e	-0.20554587
104	0x3e1569f8	0.14591205
105	0x3d3b3cf0	0.04571241
106	0x3e5ba86e	0.2145097
107	0xbe411464	-0.18855435
108	0x3e24c390	0.16090226
109	0xbe2ad854	-0.16684085
110	0xbe0a2f5c	-0.13494629
111	0x3dc2be20	0.0950892
112	0xbd2c5cf0	-0.04208082
113	0xbe4a1ed8	-0.19738328
114	0xbe59d570	-0.21272826
115	0xbd84ed94	-0.06490627
116	0x3d8dc2f4	0.0692195
117	0x3e60dbda	0.21958867
118	0x3e3c46e4	0.18386418
119	0x3b864180	0.0040971637
120	0xbe1d0762	-0.15334848
121	0xbe643ce2	-0.2228885
122	0x3e64b5f6	0.22335038
123	0xbe0ebb40	-0.13938618
124	0xbd3417e8	-0.04396811
125	0xbe4e91fa	-0.20172873
126	0xbe30f334	-0.17280275
127	0x3d46b138	0.048508853

weight f4 [4, 128]
0	0xbcb301d4	-0.021851458
1	0x3c25d570	0.010121688
2	0xba313380	-0.0006759688
3	0x3b939000	0.00450325
4	0xbc8f78d4	-0.01751367
5	0xbb600040	-0.0034179837
6	0x3d1d5dda	0.038419582
7	0x3d843cef	0.06456935
8	0x3d9900bd	0.07470844
9	0xbd93b016	-0.0721132
10	0xbd990472	-0.07471551
11	0xbc586eb8	-0.013209991
12	0xbbdcf310	-0.0067428425
13	0x3d47d29e	0.048784845
14	0x3daa6777	0.083205156
15	0x3cb9f0f8	0.02269791
16	0xbd809212	-0.06277861
17	0xbc23ea98	-0.010004662
18	0x3d6a23fa	0.057163216
19	0x3d05935a	0.03261123
20	0xbd8004f4	-0.06250945
21	0x3ba90d40	0.00515905
22	0xbdaec937	-0.085344724
23	0xbd11e307	-0.0356169
24	0x3d7d360a	0.061819114
25	0xbd1d0be7	-0.03834143
26	0x3d5d0c06	0.053966545
27	0xbd93a71f	-0.0720961
28	0x3da00a3d	0.07814453
29	0x3d2cb1c6	0.042161725
30	0x3d6a9aca	0.057276525
31	0x3cc5bd8c	0.024138235
32	0x3bcd31a0	0.0062620193
33	0xbd324c7b	-0.04352997
34	0xbd47c536	-0.04877206
35	0xbd789e76	-0.060697995
36	0x3d959a41	0.07304812
37	0xbcfb5000	-0.030677795
38	0x3b0d1f20	0.0021533445
39	0xbdaa2d72	-0.08309449
40	0x3cc25568	0.023722365
41	0xbcf6d3fe	-0.030130383
42	0xbd90c8cf	-0.07069551
43	0x3c333a58	0.010939203
44	0xbda6c1f2	-0.08142461
45	0xbc0eae20	-0.008708507
46	0xbd93d400	-0.0721817
47	0x3d64e1d2	0.05587942
48	0xbd8fc252	-0.070194855
49	0x3c6c8540	0.014436066
50	0x3d334312	0.043765135
51	0xbd90a30d	-0.070623495
52	0x3d6a5eee	0.05721944
53	0x3d936cb3	0.07198467
54	0xbd5dedb8	-0.054181784
55	0x3bf28730	0.0074013695
56	0x3cdb924c	0.026803158
57	0x3d95ebcf	0.073203675
58	0x3d8d6cc5	0.06905512
59	0xbd97d757	-0.0741412
60	0xbd938afb	-0.07204243
61	0xbda00f83	-0.078154586
62	0xbd21036e	-0.03930991
63	0xbc92290c	-0.017841838
64	0xbd01e68c	-0.031714007
65	0x3d6e8e36	0.05824109
66	0xbd7981ce	-0.060914807
67	0xbd9079ef	-0.07054507
68	0xbd8d817d	-0.069094636
69	0xbd55b228	-0.052171856
70	0x3db14d53	0.086573265
71	0x3c36e000	0.011161804
72	0xbc7d8d70	-0.015475616
73	0xbcd4cac6	-0.025975596
74	0xbd8aa5a6	-0.06769876
75	0xbcf5aa74	-0.029988505
76	0x3d3ebb16	0.046565138
77	0x3d74af3e	0.059737436
78	0x3d8290cd	0.06375275
79	0x3bce3320	0.0062927157
80	0xbd45621d	-0.04818927
81	0xbd55bc52	-0.05218155
82	0x3dafec9f	0.08590054
83	0xbda36355	-0.079779305
84	0x3cab6bdc	0.020925455
85	0xbc08bad0	-0.008345321
86	0x3da81225	0.08206586
87	0x3d54114a	0.0517743
88	0xbcb6ee00	-0.022330284
89	0xbd9633d9	-0.07334108
90	0x3c3e3ac8	0.011610694
91	0xbd7d3970	-0.061822355
92	0xbc18bb78	-0.00932204
93	0x3cb54b78	0.022130713
94	0x3d30cb2a	0.043162502
95	0xbcc3d4fc	-0.02390527
96	0xbd746364	-0.0596651
97	0xbd9a2b29	-0.075277634
98	0xbdab7609	-0.08372123
99	0x3c35a568	0.011086799
100	0xbd5c59d7	-0.053796615
101	0x3b5213c0	0.003205523
102	0xbd2b8467	-0.041874316
103	0xbd75008a	-0.059814967
104	0x3d741eba	0.059599616
105	0x3d4ce256	0.05002054
106	0x3d7e33b2	0.06206102
107	0x3dada4d7	0.08478706
108	0xbd82f97a	-0.0639524
109	0xbd40b7f5	-0.047050435
110	0xbd884788	-0.066542685
111	0x3d7319c6	0.05935075
112	0x3d5550ce	0.052079014
113	0x3d92bdcb	0.071651064
114	0xbd7d52f3	-0.061846685
115	0xbd42286d	-0.047401834
116	0x3db078bd	0.08616779
117	0xbd8fbe47	-0.070187144
118	0xbd711ebb	-0.058867197
119	0x3d0548e8	0.032540232
120	0xbd9e3d1d	-0.077265
121	0xbcccb8dc	-0.024990492
122	0x3d19d526	0.03755679
123	0x3d944c19	0.07241077
124	0xbc245268	-0.010029413
125	0xbda030fd	-0.07821844
126	0x3d4cf242	0.050035723
127	0x3db4770f	0.08811771
128	0xbd866283	-0.06561758
129	0xbb7fe9c0	-0.0039049238
130	0xbd82f1f7	-0.063938074
131	0xbd38dd2a	-0.045132793
132	0x3cf3abd0	0.029745013
133	0x3d2923c2	0.041293867
134	0x3d15b51a	0.036549665
135	0xbdaa7fd0	-0.083251595
136	0xbcaf8920	-0.021427691
137	0x3d1a4c66	0.037670515
138	0xbc066b88	-0.008204348
139	0xbcdfd9a8	-0.027325466
140	0xbd3b031e	-0.04565727
141	0x3daba373	0.08380785
142	0xbd90e5fd	-0.07075117
143	0xbd8e9798	-0.06962508
144	0x3d83e951	0.06440986
145	0xbd5be763	-0.053687464
146	0x3d5ac5e6	0.053411387
147	0xbd479228	-0.04872337
148	0xbc43e728	-0.011956967
149	0xbd2eecbd	-0.04270624
150	0x3d958f9b	0.07302781
151	0x3d7afd0e	0.061276488
152	0x3b8b2bc0	0.0042471588
153	0x3b0ae4a0	0.00211934
154	0xbd08a197	-0.03335723
155	0xbd418469	-0.047245417
156	0xbd08f0e0	-0.03343284
157	0x3ced19bc	0.028942935
158	0xbc823ce8	-0.015898183
159	0x3d75be6e	0.05999606
160	0x3c508118	0.012726091
161	0x3a7fc700	0.00097571313
162	0xbd60fb37	-0.054927077
163	0x3d120d06	0.03565695
164	0xbda771b6	-0.081759855
165	0x3ca92ca0	0.020651162
166	0x3d01e6de	0.031714313
167	0x3c83094c	0.015995644
168	0x3d7ecb0e	0.062205367
169	0x3cadc888	0.021213785
170	0xbcc7f9b8	-0.024411067
171	0xbd7d569e	-0.061850183
172	0xbda8013f	-0.08203363
173	0x3d36b6ee	0.04460805
174	0x3d45123e	0.0481131
175	0xbd8a13d3	-0.067420624
176	0x3cc1dad4	0.023663916
177	0xbd05210e	-0.032502227
178	0x3d9876df	0.07444548
179	0xbcf993e4	-0.030466028
180	0x3d95d68d	0.07316313
181	0x3d80099f	0.06251835
182	0x3d483db6	0.048886977
183	0x3d776b3e	0.06040501
184	0x3ce1d34c	0.027566575
185	0x3cf572f8	0.029962048
186	0xbd99e4e5	-0.07514361
187	0xbca54e28	-0.02017887
188	0xbc2428e8	-0.010019518
189	0x3d2fa9e6	0.042886637
190	0xbd0c4a84	-0.03425075
191	0x3d25e326	0.04049983
192	0x3d75d0b2	0.06001348
193	0x3d1c1a66	0.038111113
194	0x3d3a56c2	0.045492895
195	0xbc410510	-0.011780992
196	0x3d2d6d16	0.04234036
197	0xbcf84e1e	-0.030310687
198	0x3d9ccf13	0.07656684
199	0xbb14a9c0	-0.0022684187
200	0xbba8f290	-0.005155869
201	0xbd9f5f29	-0.07781822
202	0x3da76bed	0.08174882
203	0xbc4a9d60	-0.012366623
204	0x3d86d329	0.06583244
205	0xbd6cd8fb	-0.057824116
206	0xbd977204	-0.07394794
207	0xbc67cbe0	-0.014147729
208	0xbd90be3a	-0.07067533
209	0x3c8b2310	0.016984493
210	0x3a9c0c00	0.0011905432
211	0xbd04c3a1	-0.03241313
212	0x3d62af2e	0.055342846
213	0x3d6a8d06	0.057263397
214	0xbd9fd4c3	-0.07804253
215	0xbd9104b1	-0.07080973
216	0x3d53cd0e	0.051709227
217	0xbd5be342	-0.053683527
218	0x3c8bb898	0.017055795
219	0xbcc0d704	-0.023540027
220	0x3c817b34	0.015805818
221	0xbd47c8d8	-0.048775524
222	0x39941500	0.00028244406
223	0xbd002a5f	-0.03129041
224	0xbd231790	-0.039817393
225	0xbd31fe3d	-0.04345535
226	0x3ca1bbcc	0.019742869
227	0x3d6a43fe	0.05719375
228	0xbb0ec020	-0.0021781996
229	0xba624b00	-0.00086323917
230	0x3d955a75	0.07292644
231	0x3d91eba9	0.07125027
232	0xbc523a60	-0.0128313005
233	0xbd943a40	-0.07237673
234	0x3ca9eb04	0.020741947
235	0x3cd831ac	0.026390873
236	0xbd8f3d63	-0.069941305
237	0xbda26347	-0.07929092
238	0x3c17e698	0.009271286
239	0x3db0c393	0.08631053
240	0xbda1e9a5	-0.07905892
241	0xbd3163fd	-0.043308247
242	0xbcf9b57a	-0.030482043
243	0xbd9fe598	-0.078074634
244	0xbd5eeaad	-0.054423023
245	0x3d8e163d	0.06937835
246	0x3d8a7331	0.06760252
247	0xbd852ca4	-0.06502655
248	0x3af85b80	0.0018948168
249	0xbd936e52	-0.07198776
250	0x3d165eb6	0.036711417
251	0xbd7746e8	-0.060370356
252	0xbd38802b	-0.045044105
253	0xbd27cf0e	-0.040968947
254	0x3c5575f8	0.013028614
255	0x3d71ecde	0.059063785

bias f4 [4]
0	0xbd6e5069	-0.058182154
1	0x3c66cc20	0.014086753
2	0x3cc208e8	0.023685887
3	0x3d3bf0ee	0.045884065

weight f4 [1, 128]
0	0xbcd5a8b2	-0.026081417
1	0xbc8e3104	-0.017357357
2	0xbd92f7d2	-0.07176174
3	0x3d5c09ea	0.053720392
4	0x3d71ae6e	0.05900424
5	0x3d29d402	0.041461952
6	0x3d37fe6a	0.044920363
7	0x3d58d7ce	0.052940182
8	0x3daaa131	0.08331526
9	0x3ced2094	0.028946199
10	0x3d02b0a2	0.03190673
11	0x3ce3bf5c	0.027801208
12	0xbd4c7364	-0.049914733
13	0x3cb5ab5c	0.022176437
14	0x3cda2898	0.026630685
15	0xbd901535	-0.07035295
16	0xbcd64b82	-0.026159052
17	0xbd5f6039	-0.054535124
18	0xbd6753f0	-0.056476533
19	0x3d7b987e	0.061424725
20	0x3d8e67cb	0.06953391
21	0xbc47a1f8	-0.012184612
22	0x3cddef40	0.027091622
23	0xbca99504	-0.020700939
24	0x3c998488	0.018739954
25	0xbc726e60	-0.014796823
26	0xbd3c5676	-0.045980893
27	0xbd185296	-0.037188135
28	0x3db3cf09	0.08779723
29	0x3c741b88	0.014899142
30	0xbd45fba0	-0.04833567
31	0x3c2463b8	0.01003354
32	0xbdb49842	-0.088181034
33	0x3a4c6400	0.00077968836
34	0x3d8af5c9	0.06785161
35	0x3c270890	0.010194913
36	0x3cac84d0	0.021059424
37	0xbdaa83bd	-0.08325908
38	0xbc8830d8	-0.016624853
39	0x3d55a216	0.05215653
40	0xbd84b950	-0.06480658
41	0xbd295d67	-0.04134884
42	0x3d74aaf2	0.05973334
43	0x3ccff084	0.025383241
44	0x3d293e52	0.0413192
45	0xbda8cdba	-0.08242364
46	0x3d666b56	0.056254707
47	0xbc9dee2c	-0.019278608
48	0x3c982d24	0.018576212
49	0x3d925173	0.071444415
50	0xbda6d1f6	-0.081455156
51	0x3ccf2acc	0.025288962
52	0xbda3a549	-0.0799051
53	0x3d8603fd	0.065437295
54	0x3cd49ca8	0.025953606
55	0x3c2122a8	0.009834923
56	0xbd110970	-0.03540939
57	0x3d088058	0.033325523
58	0xbd3beaf3	-0.045878362
59	0x3c8a69b0	0.016896099
60	0x3d98045d	0.07422707
61	0xbd87df9e	-0.066344485
62	0xbcce98cc	-0.025219344
63	0x3ca91f0c	0.020644687
64	0x3c7b5e48	0.015342303
65	0x3a9f5180	0.0012155026
66	0x3d9bbc0b	0.07604226
67	0xbcbc2950	-0.022968918
68	0x3cbac6fc	0.022799961
69	0x3d3fde02	0.046842583
70	0xbc8c6484	-0.017137773
71	0x3d6c9162	0.057755835
72	0x3d6c7286	0.057726406
73	0x3d213736	0.039359294
74	0xbcb0a6d0	-0.021563917
75	0x3d9d3c31	0.07677496
76	0xbd5131ac	-0.05107276
77	0x3cdfc998	0.027317807
78	0x3c916340	0.017747521
79	0x3d7f896a	0.062386908
80	0xbd94600d	-0.07244883
81	0x3c7c7728	0.015409268
82	0xbd507e9e	-0.050902
83	0x3d3fe456	0.046848617
84	0x3cf8a4b8	0.030351982
85	0xbd8ccfee	-0.06875597
86	0xbbb553f0	-0.005533688
87	0x3cca8ca0	0.024725258
88	0x3d1a3996	0.037652574
89	0x3da10aa5	0.078633584
90	0x3d2296ae	0.03969448
91	0x3c8a16c0	0.016856551
92	0x3d411fb2	0.047149368
93	0xbdab49e4	-0.08363703
94	0x3d71619e	0.058930986
95	0xbc2a4400	-0.010392189
96	0x3d4ce696	0.05002459
97	0x3ccf5954	0.02531115
98	0xbb98bce0	-0.0046611875
99	0x3d7ed7be	0.062217467
100	0xbd530d96	-0.05152663
101	0x3ccc30e0	0.02492565
102	0x3d1eb57a	0.03874729
103	0xbd00d7d6	-0.031455837
104	0x3d032796	0.032020174
105	0xbdb30e35	-0.08742944
106	0xbd36dab9	-0.044642184
107	0x3d30066a	0.042974867
108	0x3d3a9a16	0.045557104
109	0xbda6283f	-0.08113145
110	0x3cfa9480	0.030588388
111	0x3c082af0	0.008311018
112	0x3db0b379	0.08627982
113	0xbdb09042	-0.08621265
114	0xbcac92b4	-0.021066047
115	0xbd4d0949	-0.050057683
116	0xbd5c4af0	-0.053782403
117	0xbc6c85c8	-0.014436193
118	0xbda65ed9	-0.081235595
119	0x3d8dd1ed	0.06924806
120	0xbd0016ed	-0.031271864
121	0x3cfdb604	0.03097058
122	0xbd5508cb	-0.05201034
123	0x39f9e000	0.00047659874
124	0xbd803d77	-0.062617235
125	0x3d91b301	0.071142204
126	0x3d98aae1	0.074544676
127	0x3d8e83c7	0.06958728
